…
hyperparameters: lr0=0.01, lrf=0.01, momentum=0.937, weight_decay=0.0005, warmup_epochs=3.0, warmup_momentum=0.8, warmup_bias_lr=0.1, box=7.5, cls=0.5, cls_pw=1.0, obj=0.7, obj_pw=1.0, dfl=1.5, iou_t=0.2, anchor_t=5.0, fl_gamma=0.0, hsv_h=0.015, hsv_s=0.7, hsv_v=0.4, degrees=0.0, translate=0.1, scale=0.9, shear=0.0, perspective=0.0, flipud=0.0, fliplr=0.5, mosaic=1.0, mixup=0.15, copy_paste=0.3
ClearML: run 'pip install clearml' to automatically track, visualize and remotely train YOLO  in ClearML
Comet: run 'pip install comet_ml' to automatically track and visualize YOLO  runs in Comet
TensorBoard: Start with 'tensorboard --logdir runs\train', view at http://localhost:6006/

                 from  n    params  module                                  arguments                     
  0                -1  1         0  models.common.Silence                   []                            
  1                -1  1      1856  models.common.Conv                      [3, 64, 3, 2]                 
  2                -1  1     73984  models.common.Conv                      [64, 128, 3, 2]               
  3                -1  1    173568  models.common.RepNCSPELAN4              [128, 256, 128, 64, 1, 0]     
  4                -1  1    164352  models.common.ADown                     [256, 256]                    
  5                -1  1    559616  models.common.RepNCSPELAN4              [256, 256, 256, 128, 1, 0]    
  6                -1  1    164352  models.common.ADown                     [256, 256]                    
  7                -1  1    559616  models.common.RepNCSPELAN4              [256, 256, 256, 128, 1, 0]    
  8                -1  1    164352  models.common.ADown                     [256, 256]                    
  9                -1  1    559616  models.common.RepNCSPELAN4              [256, 256, 256, 128, 1, 0]    
 10                -1  1     49536  models.common.SPPELAN                   [256, 128, 64]                
 11                -1  1         0  torch.nn.modules.upsampling.Upsample    [None, 2, 'nearest']          
 12           [-1, 7]  1         0  models.common.Concat                    [1]                           
 13                -1  1    173312  models.common.RepNCSPELAN4              [384, 128, 128, 64, 1, 0]     
 14                -1  1         0  torch.nn.modules.upsampling.Upsample    [None, 2, 'nearest']          
 15           [-1, 5]  1         0  models.common.Concat                    [1]                           
 16                -1  1    173312  models.common.RepNCSPELAN4              [384, 128, 128, 64, 1, 0]     
 17                -1  1     41216  models.common.ADown                     [128, 128]                    
 18          [-1, 13]  1         0  models.common.Concat                    [1]                           
 19                -1  1    156928  models.common.RepNCSPELAN4              [256, 128, 128, 64, 1, 0]     
 20                -1  1     41216  models.common.ADown                     [128, 128]                    
 21          [-1, 10]  1         0  models.common.Concat                    [1]                           
 22                -1  1    156928  models.common.RepNCSPELAN4              [256, 128, 128, 64, 1, 0]     
 23                 5  1     65792  models.common.CBLinear                  [256, [256]]                  
 24                 7  1    197376  models.common.CBLinear                  [256, [256, 512]]             
 25                 9  1    328960  models.common.CBLinear                  [256, [256, 512, 512]]        
 26                 0  1      1856  models.common.Conv                      [3, 64, 3, 2]                 
 27                -1  1         0  torch.nn.modules.dropout.Dropout        [0.5]                         
 28                -1  1     73984  models.common.Conv                      [64, 128, 3, 2]               
 29                -1  1         0  torch.nn.modules.dropout.Dropout        [0.5]                         
 30                -1  1    212864  models.common.RepNCSPELAN4              [128, 256, 128, 64, 1, 1]     
 31                -1  1    164352  models.common.ADown                     [256, 256]                    
 32  [23, 24, 25, -1]  1         0  models.common.CBFuse                    [[0, 0, 0]]                   
 33                -1  1    229248  models.common.RepNCSPELAN4              [256, 256, 128, 64, 1, 1]     
 34                -1  1    328704  models.common.ADown                     [256, 512]                    
 35      [24, 25, -1]  1         0  models.common.CBFuse                    [[1, 1]]                      
 36                -1  1    228992  models.common.RepNCSPELAN4              [512, 128, 128, 64, 1, 1]     
 37                -1  1    164864  models.common.ADown                     [128, 512]                    
 38          [25, -1]  1         0  models.common.CBFuse                    [[2]]                         
 39                -1  1    200096  models.common.RepNCSPELAN4              [512, 16, 128, 64, 1, 1]      
 40[31, 34, 37, 16, 19, 22]  1   6722432  models.yolo.DualDDetect                 [80, [256, 512, 512, 128, 128, 128]]
yolov9-c summary: 780 layers, 12133280 parameters, 12133248 gradients, 85.5 GFLOPs

AMP: checks passed 
optimizer: SGD(lr=0.01) with parameter groups 190 weight(decay=0.0), 207 weight(decay=0.0005), 205 bias
albumentations: Blur(p=0.01, blur_limit=(3, 7)), MedianBlur(p=0.01, blur_limit=(3, 7)), ToGray(p=0.01, num_output_channels=3, method='weighted_average'), CLAHE(p=0.01, clip_limit=(1.0, 4.0), tile_grid_size=(8, 8))
…
